NueralNetworks_MultiClassification/results/W1.npy (npy, 125568 bytes, 1 tensors)

array f8 [784, 20]
-2.627039159189273 1.5558161725866488 -0.2375476078805195 -1.1407178640747222 2.8615170033481916 -0.028431061826823 1.3133410668158014 0.6903961556443279
0.7960747881331522 -0.9296056215351767 -1.4329672268072053 -0.670686222309837 1.2576885640352231 1.0558308425726906 0.3998696960106016 -0.2239637165997054
-0.911416349554777 -1.1192762815112876 0.28266213258272455 0.0032889820982089485 -0.22094654112395062 0.8887965944266678 0.5795061820320135 0.11826723100060059
-1.6506612038443709 -0.2828726150965287 -1.8565372725982854 1.6234248230336614 -0.4604667829415458 0.5029151639548244 0.6004756513013402 -0.6927238004312066
-0.21318920170800562 1.2968547515383368 0.6737521076256254 0.3898570228171291 -0.12202632560377767 0.611904105670981 0.952872050351653 -0.8093077260165256
-0.3773510304583802 0.18758640822695832 0.9649546783909617 -1.2677171083354912 0.38885807556515667 -0.18601697979117285 0.42394918219163646 -0.1595332421413138
-0.5214003866920238 0.7919015947645098 0.2495148427864015 -0.8822733636511371 -0.060941883347037006 0.5655974338274028 0.32692399300196784 0.8299349982700042
-0.7610276384225594 -1.2409933984186428 -0.5607840424042719 -0.4828634902802404 0.1456507493458655 -0.48736878171106435 0.8331144684332792 0.425493708815779
1.219141430480102 0.3134043006240488 -1.1930501290886941 -1.0346254265732309 -0.2568912595444405 1.0846897065428138 0.48703618804316756 -1.1963025543998225
0.5290717912775107 0.5280531752690844 -0.8376600510704829 -0.42472368293622303 -1.265846088920441 -2.0068206068169694 -0.9198030618026544 0.2371408907490347
-0.05470166964069739 -0.5750188350165663 -0.7733203694856554 -0.7130404086957204 -0.6427860958281849 0.40037435919247044 -0.2241310013357432 1.898108818289274
0.9885386765479836 -1.7789691458163583 1.2646697463140153 -2.007427317034262 0.3315105085989786 0.06387677738226234 -0.7296639247733405 -1.4937139051491015
-0.46901184997486717 0.41367955849221766 0.5780486217702773 -0.2327095908949243 -1.3324865426264063 -0.6004732572074258 -0.5760819556129413 -2.3165052391365144
0.9443975072068164 0.32915894470148116 0.7695323786418256 1.6970204605712784 0.0301797829770497 0.19394569326216168 -1.9633757227156832 -0.27814105597315386
2.509746711212775 0.686518698916014 1.0154014495836183 -0.8728426931913135 0.8084721690336997 0.4852529703770811 -2.5518524558466082 0.8490658869089707
-0.1776075848226831 -0.9964703724014161 0.0541305115336903 -1.5121331450048638 -1.0717334989790364 -0.8249832362923128 -1.379511506569637 0.9446165606431411
-0.6482085363316133 1.2251146416883565 -1.1348907544213063 -0.23437627687649937 -0.3281246261160834 0.9243863140396535 0.7567990047953262 0.16317027637522136
0.7857830463065825 -1.247217668240694 -1.7305571463991352 -0.7775455174950003 1.0038847698112374 -1.7128860823149286 0.9724591906837243 1.2368173898327695
-0.31646675384658474 0.7648328019112823 0.9689743117024424 0.6309599489827468 0.3684964608569985 1.1471422989541147 1.355883538347377 0.11247492247747386
0.904782065541831 0.1052716938997187 0.492945276006994 -0.4966413921715099 1.2621439021560896 0.2850952464539286 -1.5117389917821202 1.0103253399851906
-0.4678941153046102 0.2254671678764096 -1.3555345175650955 -0.14029841619252606 2.021867126206959 -0.1614218248499393 0.40650028446298275 -0.4833174771169204
0.7511260135234639 0.87608981960666 -1.569611406810357 -0.7828491182044184 -0.29629452762226305 -1.1472044365500051 0.144428944363437 0.1256099117347574
0.15888492764808337 -0.9322193576861062 -1.0136407409887545 -0.33932846289824403 -1.684037562499656 -0.6282052563227655 0.8099211718983037 -0.3646533479466747
-0.6020629319439326 -0.4076730283120224 -1.5413710201458375 -0.13056622249344205 -0.6880907301950463 -0.5909278561975025 0.6607760121898688 -0.6684101418954668
1.4736911008470575 1.5975701483910982 -0.03216535509278196 1.1293862227048808 -0.26601130516312976 1.1190525108312095 -1.5944035614201144 -1.1500327009894824
0.2799627376324024 0.6207229403389638 -1.2956822656111378 0.20291279844223364 -1.1183766010474476 -0.37663739677765934 0.11827697684530794 -0.010188429081111247
-1.2514547427771594 0.1801437926501167 -1.169207588307092 -0.9911264485509268 -0.8228657712950127 1.279053982763021 -0.5902791864737219 -0.14834946976819832
-2.4671629925877303 -0.26513351040118865 -1.7297558710092034 0.6660555734664225 -0.11498567479918426 0.2815627577827249 0.5790097671183523 1.277272268995683
1.4708959552290082 0.49271455100388994 -0.2902642799142845 0.49791805885420165 -1.015968368327903 0.9417879531649068 -0.006622165566409092 1.0522259060503105
0.16768780830003902 0.5837311224091694 1.5839987754787754 0.14239955166307033 -0.07634989533175311 0.9111893197041182 1.5667955181535074 0.7822846282883404
0.05559892287205574 -1.267271049971926 1.391124163957445 0.00309779610951111 0.7240804460964883 0.6703060724989539 1.278072494656522 -1.6615623607264487
-0.42047449453577473 -0.35032601674366715 -1.2609828180903424 0.7224756849953065 -0.24960187648992818 0.763579791648784 -1.378349882107916 -0.14545925971983462
00000000: f03b 501b 2d04 05c0 8f8f bd7f 9fe4 f83f
00000010: a380 8bc3 f567 cebf 5b9f 0260 6140 f2bf
00000020: 93a0 d206 63e4 0640 e670 f242 081d 9dbf
00000030: 5d7b 27ec 7103 f53f 34d9 b8ad b917 e63f
00000040: ee76 86d5 7179 e93f 987b d549 54bf edbf
00000050: 3707 f60a 6fed f6bf 675a d6f3 4276 e5bf
00000060: 0d5a 310b 7e1f f43f 4653 afe1 aee4 f03f
00000070: 4cba c110 7797 d93f 05a7 24d3 d7aa ccbf
00000080: 3f14 cc9e 522a edbf b578 043f 8ee8 f1bf
00000090: b0aa d0e9 2217 d23f 1be4 90d1 7ef1 6a3f
000000a0: 0056 25ec f947 ccbf 967a 3b8e 0571 ec3f
000000b0: c608 758c 508b e23f d307 56e1 c246 be3f
000000c0: db99 f4b8 1b69 fabf 7282 b1bd 951a d2bf
000000d0: b3d5 596d 60b4 fdbf 4b1b a74e 8cf9 f93f
000000e0: 9335 68ab 4978 ddbf 7e26 bb8a e117 e03f
000000f0: 1746 8cb6 1837 e33f 6069 801a cb2a e6bf
00000100: 1d1e 99a4 c849 cbbf 4f4f 98c4 eabf f43f
00000110: ca9e 7b94 608f e53f 4664 c7de 6af3 d83f
00000120: 3f22 b805 1e3d bfbf c5a3 44eb b794 e33f
00000130: d20c b186 ed7d ee3f f083 f450 d9e5 e9bf
00000140: a78f bbef 8426 d8bf 5a23 41d8 d402 c83f
00000150: d0f6 39a2 e8e0 ee3f 0917 0ebc 9148 f4bf
00000160: 3f9f 55fb 0ce3 d83f 7915 5a86 67cf c7bf
00000170: 2275 2bc0 fb21 db3f e096 cfd4 956b c4bf
00000180: 0ed9 1edd 4faf e0bf f83d 6503 4257 e93f
00000190: ad2c d134 1af0 cf3f fe6e 6059 953b ecbf
000001a0: 8345 dd47 c633 afbf e0af 1fca 5f19 e23f
000001b0: e427 8e9c 52ec d43f f803 6cd7 d38e ea3f
000001c0: 6e10 4ca2 565a e8bf d528 cce4 1bdb f3bf
000001d0: 3fd7 4760 f1f1 e1bf 2fe8 cb44 3ce7 debf
000001e0: 8b08 8a0a afa4 c23f a895 a2d4 0c31 dfbf
000001f0: fad9 77ac dfa8 ea3f 031f 01f7 493b db3f
00000200: 69c5 d171 9a81 f33f 64c9 66e9 d00e d43f
00000210: d5ca 6ebb bb16 f3bf 8bdf 2b64 d38d f0bf
00000220: 9ec8 9709 e870 d0bf 2d8c fe97 e35a f13f
00000230: 514a e7d4 992b df3f c54b b425 0e24 f3bf
00000240: ccbc 18f7 27ee e03f af8c cac5 cfe5 e03f
00000250: e36d 9073 1cce eabf 5b0e 033e ac2e dbbf
00000260: c2ec 1ad4 e740 f4bf f8bd 59f6 f70d 00c0
00000270: 877f a6d4 066f edbf 61dc 27f9 a15a ce3f
00000280: 986a 4974 db01 acbf 915d 5fe6 8d66 e2bf
00000290: 58b0 085c 0abf e8bf 1163 821e 3ad1 e6bf
000002a0: 7bfa 7c25 b491 e4bf 1cdf b8c6 bb9f d93f
000002b0: 2add 601c 53b0 ccbf 83d3 2c5a a75e fe3f
000002c0: cc59 d3dc 1ba2 ef3f 31fd dd59 a876 fcbf
000002d0: 8b8c 0a58 163c f43f cc12 9e0d 360f 00c0
000002e0: cfa0 2dda 7737 d53f 0da8 d47d 3a5a b03f
000002f0: bc1e bf28 6859 e7bf 2622 438d 40e6 f7bf
00000300: 5b06 4547 4a04 debf dbdb afd3 b979 da3f
00000310: f309 c0d2 5f7f e23f 8dfb 2d89 6dc9 cdbf
00000320: 640c af68 dd51 f5bf fe82 3ab1 1337 e3bf
00000330: ba8b e56c 436f e2bf f8d4 18e6 3388 02c0
00000340: 0712 fc1e 8138 ee3f 6170 abad f010 d53f
00000350: f259 ef5d 02a0 e83f 75be 2ced fe26 fb3f
00000360: de16 8cf3 72e7 9e3f 7f69 e164 36d3 c83f
00000370: 0530 6da9 fc69 ffbf 3018 c524 10cd d1bf
00000380: 2b38 6f15 f613 0440 ddf9 fd0f f6f7 e53f
00000390: b55c 2497 153f f03f 67e5 b9cc 53ee ebbf
000003a0: c53a b706 01df e93f 639c 8379 620e df3f
000003b0: b3a0 d09e 316a 04c0 608b 0d39 8c2b eb3f
000003c0: 4be0 2a68 d8bb c6bf 6ab4 9cd5 15e3 efbf
000003d0: bf82 8191 feb6 ab3f 71e5 4f86 b231 f8bf
000003e0: 2248 8206 d225 f1bf 8cf5 733e 4366 eabf
000003f0: a9c1 52a8 7a12 f6bf 041d 6782 4c3a ee3f
00000400: a908 11d4 1fbe e4bf 9d6f 7ecf 119a f33f
00000410: 405b 2c35 8328 f2bf 7647 12b6 0a00 cebf
00000420: 5292 8b6e feff d4bf 1473 759b 9294 ed3f
00000430: 83b8 e78b b237 e83f 5efd 5a7c c3e2 c43f
00000440: b46a b47c 2225 e93f 0065 8183 9af4 f3bf
00000450: 3e4b bab0 5cb0 fbbf 865b 1923 a7e1 e8bf
00000460: 05ab f479 e90f f03f 150f 953c fb67 fbbf
00000470: 96cc 95bc 621e ef3f 124b 0708 01ca f33f
00000480: 16b6 82c5 fd40 d4bf 7fbe e3a3 8279 e83f
00000490: 9da2 6d6a d601 ef3f 6bef 3eeb d230 e43f
000004a0: b4a4 042e 7295 d73f dddb 1de2 b15a f23f
000004b0: 1d30 e6ef b2b1 f53f cb2f a911 28cb bc3f
000004c0: c44d b084 f9f3 ec3f a16a 7ef2 15f3 ba3f
000004d0: 22bc ca57 6a8c df3f e1db 4dfa f8c8 dfbf
000004e0: 1db3 e9cd bd31 f43f 92f0 f021 003f d23f
000004f0: eeac 9c39 1530 f8bf 52e7 58e7 4a2a f03f
00000500: 8a58 ce28 faf1 ddbf fbea 2cb0 1bdc cc3f
00000510: d9a8 58f6 44b0 f5bf 991e 9d6a 4cf5 c1bf
00000520: c654 ffab c82c 0040 21aa 4b69 78a9 c4bf
00000530: 4753 e5c4 1904 da3f 8c5a 736d acee debf
00000540: 9c42 e86b 3909 e83f 6e36 7284 ed08 ec3f
00000550: 54dd bad9 201d f9bf 487e 0c98 190d e9bf
00000560: d4c4 8752 7df6 d2bf 1fef 0c0a f35a f2bf
00000570: 8881 51cc a57c c23f 3324 7a4f fc13 c03f
00000580: 44b5 0960 5756 c43f eeb7 beb0 bdd4 edbf
00000590: dc09 875a df37 f0bf 7cfe afba 8eb7 d5bf
000005a0: c9be 025f d1f1 fabf 439c e2e8 411a e4bf
000005b0: c884 34ce dfea e93f 40b4 f3fe 7a56 d7bf
000005c0: 76a8 5a7b 1944 e3bf 47ee 039d 5017 dabf
000005d0: db74 a8a8 74a9 f8bf f729 c9db 64b6 c0bf
000005e0: 9eca dbd9 d604 e6bf bd3c 1589 e1e8 e2bf
000005f0: efc6 4abc 1325 e53f 192f 78aa 9d63 e5bf
00000600: a8b5 a81e 3d94 f73f 7a7d 46b7 a58f f93f
00000610: 911d 6038 fa77 a0bf 8120 b149 f711 f23f
00000620: caae 0248 5406 d1bf 7d6d 089b a3e7 f13f
00000630: 1bce 0e4f ad82 f9bf 3649 81b0 8866 f2bf
00000640: feb4 8ed4 e8ea d13f f83f 145b f6dc e33f
00000650: 90e9 cc53 1dbb f4bf e0e6 9fec 0bf9 c93f
00000660: 4fc4 e1dc dee4 f1bf 7114 67bd d31a d8bf
00000670: da9b 6b63 6647 be3f ab9f 9bcd abdd 84bf
00000680: 8f6e 8a68 f505 f4bf 6c3c 01a9 f30e c73f
00000690: 5039 2004 13b5 f2bf 6a42 57d0 4eb7 efbf
000006a0: 76b7 1699 ea54 eabf 5292 1c4f 0177 f43f
000006b0: 7b40 2d2d 91e3 e2bf e544 848c 1dfd c2bf
000006c0: be86 78f3 bfbc 03c0 43cb 0f8b f2f7 d0bf
000006d0: c0c6 007e 14ad fbbf fd6a 2bc7 5350 e53f
000006e0: 745f c580 b36f bdbf 24b2 1ccd 1f05 d23f
000006f0: 12d0 ba7d 3f87 e23f 6ac9 f60b b56f f43f
00000700: b36f 7832 ca88 f73f 50cd b49c a288 df3f
00000710: 2472 5ba1 b093 d2bf 5d76 b7b4 e3dd df3f
00000720: 3bd2 3b0c 6841 f0bf 9185 537d 2023 ee3f
00000730: b731 9508 d81f 7bbf 41d7 e7d4 ead5 f03f
00000740: 3715 4b4a cb76 c53f c1f3 0ce4 ecad e23f
00000750: bf5d 9919 0f58 f93f 4ad1 ad04 263a c23f
00000760: 3bbe 80af aa8b b3bf 65ff 1281 7628 ed3f
00000770: abd1 5f2d 9811 f93f 9a2e d5c5 7908 e93f
00000780: e64a db46 7677 ac3f 87c0 2c02 be46 f4bf
00000790: 0af6 4d69 0b42 f63f 0460 5c9f 8c60 693f
000007a0: 4e0a 75c1 aa2b e73f cb2e 76b8 2573 e53f
000007b0: 6978 e724 fc72 f43f bc5a f969 c295 fabf
000007c0: 8354 b5da 0de9 dabf 2687 36d0 bd6b d6bf
000007d0: 4841 c851 fc2c f4bf a4b8 e653 851e e73f
000007e0: 49b1 454c f4f2 cfbf a193 20e3 3e6f e83f
000007f0: 5295 219b b80d f6bf dbd2 b2b5 689e c2bf
