NueralNetworks_MultiClassification/results/W2.npy (npy, 2528 bytes, 1 tensors)

array f8 [20, 15]
0.9546651286465541 0.545475430767448 -0.537218216164014 -1.030855812552255 -0.2645587123949645 -1.121214002914172 1.6494979436366455 -0.06671986432806896
-0.15793901338747865 -2.684271699479754 0.038681572527101575 0.7004091257454016 -1.0985885938918383 1.410596108620166 -0.5335614761319933 0.26288364088628446
0.9068522386685094 1.2137506577414872 -0.6337733662494346 -1.289853571520772 2.908798265076882 2.1306514803077006 -0.5408803807614816 -0.3965106753968593
0.0016847708896413982 -1.1895685917433747 -1.0463343368300912 0.41568984439462237 0.6826149848298124 0.19483428884826073 0.11702784514151743 -0.6919513134874091
0.3354885767235826 0.8231430588725441 0.2690744989342807 0.27353904218146746 0.6913957735487931 -0.1919024031375143 0.5967941195341773 1.474031983695739
-0.07712678848737624 0.1842202920983512 1.127437163764416 0.5525118061696299 1.152267838954965 -1.5158773480043508 0.4093566233060833 -1.4571965781910237
-0.49290339201798705 0.9733763975202057 0.32161355963435684 1.3878199009471357 0.18194879871097466 0.20329814519537842 0.5069570677542364 -0.2539625136370979
0.5092457526701372 -0.8160785168546163 -0.6567155075462116 -0.008833212098631665 0.1289997162337161 -0.9092418757798497 -2.2270330146831645 -1.4637656941014878
0.7237690664837431 -0.5243103655442108 0.6279200917637194 1.5918693459989166 -0.4844314960659705 -0.0753875797681342 2.190129327971064 -0.23830246143423076
1.3590815122194224 0.27414893129411255 0.045122258463179576 -0.5489395110376348 -0.4137398364721366 -0.06309875328732656 -0.6221172329946897 -0.3343562630320633
-0.6473237967496022 -0.8431130077192035 -1.2805501288918526 0.6604961049514474 1.5809726677755935 -1.3750510893551082 -0.8480071995998486 -1.3106087152455217
0.251498018459377 0.07200099342551626 0.7132142857231549 0.6257902559669734 -0.6715808696766886 0.7844335319173885 -0.11120752199828692 0.2764252034482741
-0.4026805634117305 1.6279598822144317 0.4645601241736399 0.7612785405083754 0.15402021669050475 -0.2142358283105243 1.0346835827470584 -0.6548376866784738
1.3701593575918003 0.217487183512481 -0.9131285916269144 0.6604843308149465 1.4034890480119022 -1.5943274671173588 0.8650208527621794 0.40773182540118663
0.6674722190039137 0.12351604937940218 0.003939368769560787 0.08815018668510119 0.9452724107066109 -0.724479459703577 1.0502360506839599 -0.2729826001270997
-0.46520913271909775 1.2485611613527277 -0.3608588483652139 2.4595132327668496 -0.08166730586287516 -1.360424169902058 -1.0343347449386853 0.15689741753313868
-0.9434420640774721 -0.8269664494820478 0.42279822192592126 0.05835186067675896 0.09686533627195618 -1.9401854145151554 -1.4685477723925182 1.0823307978239487
-0.6127426728988066 -0.01027808180453031 -0.1312074403706085 0.39327497829860947 -0.15073264154451693 1.9593615490816794 0.29815444267237234 -0.11984542801197624
-1.0676862657945347 1.3955991716869798 -0.4523366415847009 0.5036915720220214 -0.04259189901981716 0.3249631436302361 0.44440963550365614 0.030953636953374095
1.194478807543249 -0.32312381945307017 -0.4574112247318879 0.5318998145547028 -0.2159733336638347 0.3856331781499858 -0.7725335843645801 -0.15915421345428662
-1.837970413817755 -0.6061987066533748 0.6598584436613321 -0.14225496456699904 1.1516974400943312 0.26350622885984976 0.8109881374035393 -0.05891746179956536
0.4734780615247915 1.2097784496998543 0.2274565586342571 0.916897568864257 0.2714578937189992 0.7148978981129435 -1.7145853428511664 0.13562630399624998
-2.3686044414398695 0.6759721691762417 1.0272070248892844 -1.9519622548880329 0.7406172246282963 -1.0944579512489108 -0.2612817646985762 0.9277976846807525
0.06274800485056795 -0.3313726798605435 -0.47960112914560843 -0.7299320351889642 0.08408949324198553 -1.2153421806761122 0.7701992596236422 -1.309693727037806
-0.5041791147286734 -1.9599913597634369 0.46396017602914635 -0.3706395925710117 -0.5975601379144487 0.5664037684456906 -2.2192848088978394 -2.468373639041316
1.2019581960754437 2.2127328145073824 -0.2218649857137943 -1.2473745509535559 -0.6184909246440226 0.05141776398937785 0.08998660333347151 -1.4069701558855003
-0.4046855489210998 1.207599167718388 -0.1953695320402358 -2.082610452283162 -0.24911340944985014 1.4551599122405425 -0.30856915248273464 0.9942014421603071
-0.19811876171408474 0.6886405934108432 0.8794035065670377 -0.8407051073199634 -0.5740228022859175 -0.6460747161442317 0.42194254963699634 0.29722485443845903
1.1267022639051432 0.006358711072269013 -0.014512185137377507 -0.2951570613881838 -1.1299898443724286 0.501451581924141 0.31361662440671184 -0.868222910645619
-2.2015899269027206 0.4500008008425333 0.47795754328871726 0.9016136907907737 -0.4518397262964053 0.48300284988633335 -0.4036862357519252 0.7854000126254788
-0.43342477112558253 -0.5361867927328702 -0.16394420366262116 1.005580626475248 -0.6957969080909876 1.1137901809045554 -0.8501934142734874 0.9745349266669796
0.6611660566350372 0.36555274159267825 0.9076894526118815 0.8557425267615756 -0.7295651470172225 0.2569246648670094 2.759834936685172 0.6863047834081326
00000000: 0765 45e2 9d8c ee3f cf5d fde3 8874 e13f
00000010: 40ad a741 e430 e1bf e5da 1caa 627e f0bf
00000020: 71ed 66aa 87ee d0bf 7f56 2518 7ef0 f1bf
00000030: 7cd1 abf4 5764 fa3f 5759 4893 8d14 b1bf
00000040: 4580 a178 5837 c4bf 46c0 d670 6379 05c0
00000050: ef6a ec31 12ce a33f bbaf 1c66 c069 e63f
00000060: 9862 28a2 d193 f1bf 3337 a639 cd91 f63f
00000070: 828e 4c84 ef12 e1bf d8a3 10e8 15d3 d03f
00000080: 1e57 6cfc ee04 ed3f 88f8 47cf 856b f33f
00000090: b5bf 2315 df47 e4bf dcf7 a47f 3da3 f4bf
000000a0: 8055 5906 3845 0740 b6c3 d800 930b 0140
000000b0: 1965 4d5f e44e e1bf 5d0a d64f 6e60 d9bf
000000c0: a426 d3f7 709a 5b3f 642f 5e13 7908 f3bf
000000d0: 9adf d512 c9bd f0bf 2312 bd93 a99a da3f
000000e0: 8850 7361 fbd7 e53f b510 5f79 54f0 c83f
000000f0: e0aa 9a6f 89f5 bd3f 0a49 bb14 7724 e6bf
00000100: 6366 4d14 a578 d53f f02e b91c 3057 ea3f
00000110: 860f 473f 8438 d13f ed4e 16e6 a981 d13f
00000120: 9182 7f07 ea1f e63f 61ed bf08 4290 c8bf
00000130: 6005 3bfb ef18 e33f 03b3 b38f a295 f73f
00000140: ebe3 32ca 94be b3bf d336 e9d0 8794 c73f
00000150: 519c 2a8d fb09 f23f e2e0 443d 2dae e13f
00000160: ebb4 c866 b06f f23f 7ad0 269b 0841 f8bf
00000170: 250a 601f e632 da3f e0c6 f25b ad50 f7bf
00000180: 9080 33ab ba8b dfbf c485 4142 e625 ef3f
00000190: f119 250a 5195 d43f ffe4 f4a3 8234 f63f
000001a0: b74b 0126 194a c73f 5ace 7972 ac05 ca3f
000001b0: 4560 4f07 fe38 e03f 72cd 9efc eb40 d0bf
000001c0: 6b0b abbf bd4b e03f fa7a 9bb1 501d eabf
000001d0: 11fc 753d d003 e5bf 1075 a8a8 2517 82bf
000001e0: 3c63 350d 1083 c03f cc19 146b 8218 edbf
000001f0: 6e69 69af f6d0 01c0 18c3 9293 956b f7bf
00000200: 9aee ccbe 1d29 e73f 09eb 1e88 26c7 e0bf
00000210: 3d0c 54e0 eb17 e43f c41f c9fd 4b78 f93f
00000220: 535d 30f6 ec00 dfbf 4cf4 a0b5 994c b3bf
00000230: 5f2b 6d86 6285 0140 0d4a 35ef b180 cebf
00000240: 514a 7941 ccbe f53f 640f 89f5 a78b d13f
00000250: 588f d7c0 431a a73f a571 ec97 e990 e1bf
00000260: 51d0 aca6 b67a dabf ac95 c969 3d27 b0bf
00000270: c1af 3f66 62e8 e3bf ffde bbcf 1766 d5bf
00000280: 76c9 1e65 e0b6 e4bf be8e 5f21 c8fa eabf
00000290: 5caa c721 227d f4bf f5db 3cba c822 e53f
000002a0: ee74 fffe a94b f93f f4bf 3192 3500 f6bf
000002b0: 80b9 a1fe df22 ebbf 4050 1dd8 40f8 f4bf
000002c0: 52ad 1225 8b18 d03f 49c7 0a38 a86e b23f
000002d0: 0612 07c4 a6d2 e63f 6913 7149 7906 e43f
000002e0: 012e fc29 977d e5bf 1212 af59 141a e93f
000002f0: 9345 0d9e 1878 bcbf 536e 2656 f3b0 d13f
00000300: aba5 a5b2 84c5 d9bf d7f9 54a9 1f0c fa3f
00000310: b07e 1663 5abb dd3f a529 54d0 645c e83f
00000320: 02e5 cd38 efb6 c33f 76d2 1c62 146c cbbf
00000330: 26b5 595f 108e f03f 681d 0f2a 6ef4 e4bf
00000340: 76a4 f237 2cec f53f e11c 3eba 9ed6 cb3f
00000350: 7b90 c273 5938 edbf 49dc 0b09 b022 e53f
00000360: af15 98ee b074 f63f 1c23 a684 5d82 f9bf
00000370: 4817 1f36 40ae eb3f 11bc e839 4718 da3f
00000380: 1088 f3b2 ee5b e53f 779b 9d70 bf9e bf3f
00000390: eeac 8340 ba22 703f d6e4 f2b8 0291 b63f
000003a0: 9f78 39ed ab3f ee3f 9f9e 418c ef2e e7bf
000003b0: ef48 2c51 c4cd f03f 6d11 fb02 8c78 d1bf
000003c0: 210f b586 fcc5 ddbf 4a0d b144 1bfa f33f
000003d0: 2fda 0cb6 4f18 d7bf ba80 1646 15ad 0340
000003e0: ce5e d507 26e8 b4bf 35ad 6622 4cc4 f5bf
000003f0: ec0c ea96 a28c f0bf 24db 90ee 3615 c43f
00000400: 7645 5c69 ad30 eebf a944 ed57 8276 eabf
00000410: 5da4 fe45 200f db3f 58ec 888a 4be0 ad3f
00000420: ba72 67ab 2acc b83f fd4c 78dc ff0a ffbf
00000430: dda1 f0f2 2b7f f7bf 1bb8 4119 3a51 f13f
00000440: 16d9 9e85 969b e3bf 1783 bac9 ac0c 85bf
00000450: e81a b1c8 67cb c0bf 362b 88d0 6a2b d93f
00000460: 48cb ef0a 354b c3bf 0988 e57e 8b59 ff3f
00000470: 28d6 1b5f f614 d33f 9df5 e2a1 30ae bebf
00000480: 3f9d 9f31 3e15 f1bf 3786 0bcc 5f54 f63f
00000490: 82e1 9862 15f3 dcbf 865f a3c9 3d1e e03f
000004a0: 4bb3 bafa 9ace a5bf 9105 9336 32cc d43f
000004b0: affd a01c 3571 dc3f 4cc4 a069 4fb2 9f3f
000004c0: 039d 62cf 951c f33f c902 4787 0fae d4bf
000004d0: 32fe c2ba 3946 ddbf 6759 88c2 5205 e13f
000004e0: 4e77 72a2 03a5 cbbf e107 1ac8 36ae d83f
000004f0: 790a fd59 98b8 e8bf 0d44 e74e 2a5f c4bf
00000500: 36ce 25aa 5368 fdbf 0f85 7ed4 fa65 e3bf
00000510: e579 7074 8f1d e53f a023 4122 6935 c2bf
00000520: 2079 814b 5a6d f23f c0b3 cf3a 49dd d03f
00000530: f0f2 f264 9df3 e93f 4057 2ff7 6d2a aebf
00000540: 4fd6 67ed 764d de3f 00dd cda5 405b f33f
00000550: bd23 4ce8 4b1d cd3f 7bb9 0192 3957 ed3f
00000560: c2e7 f0ed 905f d13f b6f9 8b8e 71e0 e63f
00000570: 83f2 5b0a f16e fbbf 6814 12e6 335c c13f
00000580: 1d28 a9e2 e6f2 02c0 c8c7 f362 90a1 e53f
00000590: 59ef 21a2 706f f03f 0a54 fcc5 3c3b ffbf
000005a0: 0c40 d4e4 22b3 e73f 3761 3757 e682 f1bf
000005b0: b6fa 9a26 d7b8 d0bf 6c44 20c5 84b0 ed3f
000005c0: bef1 b8d4 4010 b03f 897d b2c1 3535 d5bf
000005d0: 1d86 33ef c8b1 debf ee0e 6e6d 9a5b e7bf
000005e0: be5a 6997 e386 b53f 6940 77a4 0a72 f3bf
000005f0: 2695 efea 78a5 e83f ab75 d668 81f4 f4bf
00000600: 90bf 223d 3c22 e0bf 4606 6ae6 1f5c ffbf
00000610: f542 ac05 86b1 dd3f 237f 2c20 8fb8 d7bf
00000620: bb8b 3770 361f e3bf d2c5 b9cb fa1f e23f
00000630: 80ce d564 18c1 01c0 7ded afad 3abf 03c0
00000640: dad9 7484 383b f33f 0ec3 0843 adb3 0140
00000650: 2356 e264 1266 ccbf d254 6304 3ff5 f3bf
00000660: 0b01 c77a adca e3bf 4620 89dd 6d53 aa3f
00000670: ef37 65ae 5c09 b73f b49e 5f23 f382 f6bf
00000680: 67ea 7137 5ee6 d9bf cd6f 4081 5352 f33f
00000690: 91b2 5f6b de01 c9bf 5ee9 36ab 2fa9 00c0
000006a0: 5784 4abd f2e2 cfbf af5f 98c2 5548 f73f
000006b0: 26f0 9dd4 98bf d3bf a2dd f68a 7fd0 ef3f
000006c0: 019c 24a1 f45b c9bf 2db9 6cff 5709 e63f
000006d0: 452e 96d2 1224 ec3f 089f b065 0ee7 eabf
000006e0: c43d 5f11 655e e2bf 2a95 13e2 a4ac e4bf
000006f0: 17d5 de52 1b01 db3f 58c7 5765 bb05 d33f
00000700: f9d3 fcf3 f806 f23f 600b 9a81 970b 7a3f
00000710: 7fe0 7784 90b8 8dbf 2d20 7671 dae3 d2bf
00000720: 7244 263b 7014 f2bf 6688 1c30 e40b e03f
00000730: 71c2 5376 4b12 d43f 328c db69 7bc8 ebbf
00000740: 7100 fa2d db9c 01c0 27b8 b228 d0cc dc3f
00000750: 834c 533c db96 de3f b44f 72f4 04da ec3f
00000760: 7781 de2b f1ea dcbf 0abe 08c9 84e9 de3f
00000770: 6297 19cb fed5 d9bf 3224 1035 ff21 e93f
00000780: b0ae 5040 3bbd dbbf bfb6 6a34 7128 e1bf
00000790: abc3 8ca8 1ffc c4bf f53c 03b6 db16 f03f
000007a0: 2614 9de0 f743 e6bf b174 19a7 15d2 f13f
000007b0: df88 b2d1 c834 ebbf 9e05 dbde 632f ef3f
000007c0: ec20 cfb7 4528 e53f e4a2 8653 3765 d73f
000007d0: ae8c 3cc0 ca0b ed3f 8d98 c726 3e62 eb3f
000007e0: 61b1 d701 9958 e7bf a4ee 4826 7471 d03f
000007f0: 4d5e db56 2414 0640 fe70 fa72 35f6 e53f
