NueralNetworks_MultiClassification/results/W3.npy (npy, 1328 bytes, 1 tensors)

array f8 [15, 10]
00000000: c4ad a9f0 77aa d33f eee8 a337 bc61 dcbf
00000010: e373 abb0 73e0 fc3f 1694 688c fba8 f93f
00000020: fad2 90ab 479a 02c0 267e 35a9 a6b0 a53f
00000030: f82e 665a c082 f0bf de44 0eb5 219c f43f
00000040: 2e9d c9cf a86c e9bf e0ec ac3e c733 f0bf
00000050: d40f 51cb cf09 f3bf 65e9 f658 0e77 f2bf
00000060: ff3e 3c19 e297 e8bf 63ca 9da7 dfaa e33f
00000070: bb56 431b 936c c6bf 2135 db7e 51f4 f03f
00000080: d29a 7485 8d25 c83f e350 c053 2424 e2bf
00000090: e034 b7a8 1c36 0240 5b00 0d73 eebd f5bf
000000a0: f869 99bb dfb6 d93f 8cfc 32e7 b7df fdbf
000000b0: d9b7 3806 736f e6bf ecba 15ee 359c dbbf
000000c0: e436 1282 8bd0 813f 4e92 4fb7 e1e9 cfbf
000000d0: 3065 66f3 0e8e e33f 202c 2cbb d09f eebf
000000e0: c25e 7786 7f4a 913f 3257 5ab4 debe acbf
000000f0: ba3c 97b7 aa40 ee3f 4544 cfe9 9aa1 f8bf
00000100: fbcb 0edc 0408 e83f dbc1 7e8a b6d6 e9bf
00000110: c96f 3f93 e22d e33f 2805 039b 1d55 ea3f
00000120: f519 6b18 72a4 f63f b730 79a7 5cb5 d53f
00000130: 9fb6 7a16 b360 b03f 79d0 5810 a87c c7bf
00000140: ce3e 2f90 26a9 b13f 324e b06a b48c fd3f
00000150: 7710 de0f 11cf b63f d0f9 3626 64ee cd3f
00000160: 1322 32c0 fffa f7bf 9b0e 3911 3da3 e83f
00000170: c7ef bd58 0d83 c5bf 9d8c 382d a9e7 a53f
00000180: 7207 4a3a 61d2 f5bf 467f 44e3 7c3e e3bf
00000190: 9ab3 fc3f 649c f13f 0b80 7aec ba69 b3bf
000001a0: a43e 84d3 c787 efbf da76 e911 9076 913f
000001b0: 7351 ee6a eaa7 d73f 5953 92b9 daaf f23f
000001c0: c2c6 af2b b58a fd3f bf6d 19e0 471c ebbf
000001d0: 4b21 9691 c490 ecbf e309 e632 bd91 eebf
000001e0: ec6c dfa9 491d e33f 6bd7 a9de d19b e23f
000001f0: f9a1 10c9 4649 a1bf 5af0 4fd0 ceb1 e23f
00000200: bdb6 18ea 922e f0bf bcbe b19a 604f e93f
00000210: e785 927e e2e5 eabf eb36 5135 7a1e f2bf
00000220: 7eaa be3a 151b f73f 6dd6 6aee e327 adbf
00000230: 985f 0186 2239 fe3f 4a57 2797 5685 f1bf
00000240: ae13 479e 37c5 943f fac0 aaf1 1fdf cf3f
00000250: 1b03 a851 164a ecbf 724c 9164 e901 a7bf
00000260: 24f8 248e a940 eb3f c9ed 9b24 7ecf 01c0
00000270: 4835 50cf f85b dcbf 6b1b 206f 9cfb 00c0
00000280: 6bb6 203b 8650 ccbf 48ed 325a b9bd dbbf
00000290: f01a 20a1 cc48 94bf 2792 20b5 9fb6 d2bf
000002a0: 06b3 2682 0574 df3f a70c c250 3c26 e7bf
000002b0: 5d3d 849c 37e7 e63f a839 4d75 845b e93f
000002c0: 646b a288 f10f ca3f aa7d 386e 98f3 cf3f
000002d0: c966 ccb0 7c1b e8bf bc5e c8da 237f e8bf
000002e0: 29f3 1e6d 3f23 d1bf 2c1a 6fd4 2d6c f13f
000002f0: 3ddd d79f 84eb d13f 6cb6 e1e7 c694 f73f
00000300: 883d 517c efb5 c63f a4b0 041d 6cbe c73f
00000310: 6c29 df7b b05e dc3f b5ec b5d2 0abd debf
00000320: cc08 d14c f9ed c0bf 2e60 8fa4 87f8 c6bf
00000330: c8b7 ea82 5430 f0bf 13ac 5f1a c438 ee3f
00000340: bdc2 bc1b 28d5 e5bf 7475 b16c 555c b43f
00000350: 61f0 e400 d237 e6bf 74d7 11f1 5a6f f03f
00000360: 6221 0b46 9d8e a8bf 2def ef83 996b e43f
00000370: c8ae 63a1 2595 eabf 542d 4ae4 7d3e e13f
00000380: eba6 36f7 af63 d8bf 329c 552a d268 b73f
00000390: 2f4a 658b 6c25 febf 3205 83be 7a46 f23f
000003a0: e75e bee0 5307 ddbf e71f 263d 5ca5 b9bf
000003b0: 96a4 b6d7 563b ad3f bdfd a9dd bf5f dfbf
000003c0: 94bf 3ee6 d9b2 dabf 5a92 6e2c 3178 c1bf
000003d0: cf4d dd91 2cc8 f63f 214a c5dd 6bbb bf3f
000003e0: abc8 0a59 db30 e9bf 4bb2 13f2 f4d1 f43f
000003f0: 5d27 f62a 473b e43f 2e64 35c4 8304 ed3f
00000400: bc71 c659 3628 ef3f 38ef 4f78 7876 0440
00000410: 1c15 1724 3f70 f7bf 536b 2661 56f1 f03f
00000420: 867e 8360 7787 0140 48e7 1736 df05 e73f
00000430: fc40 c81f 926e f0bf 7b9d f774 4c2c e3bf
00000440: 1fb1 b8fb ac1e e93f e098 18f8 4e0f d4bf
00000450: d153 d49b 9b92 e23f 2de4 6395 4a9e efbf
00000460: 5d76 8ea7 4da4 f7bf abd7 af94 05f0 e73f
00000470: 1f4a 665a 8c90 b5bf e97a ba88 f487 eabf
00000480: d219 7c29 4c5c f5bf c53f 9bfc 7798 a13f
00000490: 1bee 8efc 46c6 f23f b6f2 94f2 036d a73f
000004a0: 2eae 462e 7180 bd3f 88ab f614 2065 c0bf
0.30727957250811877 -0.4434652846681634 1.8047978306924441 1.6037555203158766 -2.3253320125171486 0.04236336532153144 -1.031921723481842 1.2881180832376269
-0.7945140894270588 -1.0126411865483576 -1.1898954336220315 -1.154066417234014 -0.7685404293897306 0.6146086000210967 -0.17518843489840727 1.059648032696096
0.1886460210455057 -0.5669118533865255 2.276421850291271 -1.3588699812098841 0.40178674049607777 -1.8671187430589127 -0.7011046525492431 -0.431409342293519
0.008698549181896671 -0.24932500315402922 0.6110911134630097 -0.9570087104524454 0.01688575037209606 -0.05614372207234765 0.9453939042813524 -1.5394543774784932
0.7509788797382265 -0.8074600892051039 0.5993512035306533 0.8228900935720604 1.415147872337568 0.339194453762285 0.06397551821529611 -0.18349171446027748
0.06898728389864603 1.8468517463233067 0.08909708630932466 0.23383762231783445 -1.4987790591859536 0.7699265800842626 -0.16806189377882516 0.042783056993607384
-1.3638622548027937 -0.6013779105014485 1.1006815433022212 -0.07583206437493588 -0.9853247767623157 0.017053843587169527 0.3696237606284491 1.1679332016839992
1.8463641840466356 -0.847202241605764 -0.8926718562588943 -0.9552904123414091 0.5973251645877133 0.581520972146547 -0.033762180370391755 0.5842050617789127
-1.0113705772777586 0.790939619195306 -0.8405621025196383 -1.1324407656388142 1.444112042877037 -0.05694496426933147 1.8889489397606436 -1.0950532822075325
0.02028357413816522 0.2489967279448207 -0.8840438456391867 -0.044936460043253926 0.8516433502443346 -2.2263148174367626 -0.4431135201019356 -2.1228569680856046
-0.22120740782831957 -0.4334548359726864 -0.019808957418741835 -0.2923964756794554 0.4914563914306175 -0.7234174325279995 0.7157247597660149 0.7924215594337527
0.20361155673603115 0.24962144262188463 -0.7533553555578801 -0.7655200265025637 -0.2677763524659889 1.0889108942225318 0.2799998818367902 1.4738225038412578
0.1774272305506026 0.18549872795972988 0.44327938172195647 -0.48028822495661966 -0.13226238489921227 -0.17945952925833936 -1.0117993463459118 0.9444294467078883
-0.682270101713662 0.07953390029566326 -0.694314004656473 1.0271863381180681 -0.04796306114218642 0.6381347252749713 -0.8307064201485099 0.5388783892425786
-0.3810844339555916 0.09144319089465183 -1.8841367192404836 1.1422069017283545 -0.45357224414463676 -0.10017944805997524 0.057093347389419666 -0.49021908423307164
-0.4171662090766344 -0.13648047132041335 1.4238706300574113 0.12395357288668453 -0.7872139681915277 1.3012589889650765 0.632236083897833 0.9068011123846469
0.9736587289258334 2.5578469657320078 -1.4649039659282783 1.0589202685284433 2.191145662320028 0.7194667870055378 -1.0269948235982715 -0.5991575512424981
0.7849945942339537 -0.3134343550504024 0.5803964656394048 -0.9880726735856392 -1.4776131196189433 0.7480495361366953 -0.08423688132305827 -0.8290960951306633
-1.3350335712908543 0.03436636885237435 1.1734075418052103 0.045753596651115044 0.11524112109935267 -0.12808609984980657
